ML/model/m5_multigpu_best_30_epochs.pt (torch, 119037 bytes, 26 tensors)

conv1.weight f4 [32, 1, 80]
-0.05702153 0.044671103 0.099811114 0.037465703 0.11375475 0.041813113 0.059983723 0.031893827
0.015639344 0.003831875 -0.15631709 -0.053466592 -0.08140028 -0.11180604 -0.058507226 -0.06357591
0.05006086 0.06026448 0.08334604 0.16712585 0.21277905 0.18197222 0.14547744 0.05148724
-0.033375412 -0.0704615 -0.16800827 -0.17515513 -0.20713599 -0.18660398 -0.14808641 -0.018243518
0.0006056796 0.1229544 0.20962307 0.22018574 0.29320195 0.17149132 0.10643217 0.08480534
-0.07182875 -0.071257755 -0.24623738 -0.23701598 -0.24754617 -0.20350268 -0.1476719 -0.14230189
-0.015760802 0.14164317 0.19671127 0.20845293 0.19375975 0.18113104 0.15697925 0.087589554
0.0068067694 -0.043546654 -0.1474864 -0.24842402 -0.14143026 -0.21567012 -0.13148123 -0.08860714
-0.010286655 0.06952663 0.08023352 0.1741089 0.14396097 0.07921171 0.15415178 -0.014128755
0.011930729 -0.052723445 -0.12617257 -0.115592316 -0.09015043 -0.0352885 -0.1178178 0.090670995
-0.18861589 -0.16410132 0.15072782 0.12732632 -0.05945359 -0.07803511 -0.03655988 -0.107944846
0.0054368284 0.001752242 0.042297408 0.05756055 -0.027171655 -0.0578766 -0.04616305 -0.040865216
0.07744709 0.07758164 0.2173556 0.16699956 0.17417061 0.17150564 0.12338567 0.06644184
-0.026852364 -0.20524378 -0.06301831 -0.0060009984 -0.19315702 0.06251425 -0.049541503 -0.15090649
-0.14601709 -0.12212385 -0.04344205 -0.20118475 -0.09675638 -0.040697064 -0.066739395 -0.09051661
0.012350974 0.082763866 0.075060554 0.035292156 0.15451421 0.09306996 0.07542967 0.024489565
0.10070715 0.20543526 0.15716164 0.11030442 0.098716944 0.21610226 0.23857279 -0.028476693
-0.11075935 -0.04947238 -0.08392907 -0.19289711 -0.3763015 -0.4413015 -0.23443544 -0.19653563
-0.16198115 0.0005599343 0.011784448 0.062188588 0.021229591 0.10083667 0.11717971 0.03020013
0.18121094 0.18462533 0.11987387 0.23346327 0.005252271 -0.075849116 -0.10521874 0.0115748495
-0.24312368 -0.23010945 -0.003734981 -0.14242199 -0.057124816 0.16972864 0.16173357 0.073712245
0.09508552 0.13506667 0.020618148 0.03180616 0.087389536 0.21511476 0.1494703 0.056405865
-0.15711083 -0.08170748 -0.22823791 -0.25577688 0.035166226 0.103792146 0.041359987 -0.02974461
-0.14138286 -0.20277733 -0.0012553886 0.059281923 -0.09186775 0.014041645 0.0024337682 -0.07712358
-0.011268463 0.021261586 -0.0018468378 -0.038677998 0.08122122 0.11561806 0.1637456 0.091706626
-0.03445984 0.091908425 0.19121033 0.08509897 0.1829046 0.0018439597 0.053580355 -0.083629206
-0.1873762 -0.12529689 -0.30162704 -0.10080141 -0.15547313 -0.024590874 -0.03719499 -0.20389289
-0.1575669 -0.06560605 0.035905514 0.0014210317 0.081690826 0.17318934 0.14638957 0.14605062
0.11977688 0.16000734 0.14519621 0.13123447 0.21198699 0.035735678 0.08703405 -0.021643579
-0.16532503 -0.15965864 -0.0972217 -0.10800657 0.08776504 -0.06690948 -0.20333268 -0.2425469
0.16521345 -0.056185342 -0.12987505 -0.13362205 -0.26441607 0.03057398 -0.07470455 -0.12562583
0.037565935 0.09965039 0.0254184 -0.080513544 0.0025451933 0.0053358884 -0.03174787 0.097401164
00000000: 688f 69bd 0cf9 363d c569 cc3d a375 193d
00000010: 40f8 e83d 3a44 2b3d 7eb1 753d 1aa3 023d
00000020: 151e 803c 3220 7b3b 9611 20be c9ff 5abd
00000030: 31b5 a6bd 91fa e4bd 46a5 6fbd 1634 82bd
00000040: 9e0c 4d3d e3d7 763d 54b1 aa3d 0a23 2b3e
00000050: c0e2 593e ed56 3a3e 0af8 143e 49e4 523d
00000060: a8b4 08bd 1e4e 90bd 5c0a 2cbe de5b 33be
00000070: 751b 54be 1d15 3fbe f7a3 17be 6e73 95bc
00000080: 78c6 1e3a 84cf fb3d 6ea7 563e 5f78 613e
00000090: 911e 963e 6c9b 2f3e 1cf9 d93d 6cae ad3d
000000a0: f41a 93bd 96ef 91bd a725 7cbe 51b4 72be
000000b0: be7c 7dbe 0263 50be 4d37 17be 96b7 11be
000000c0: cc1c 81bc e80a 113e ae6e 493e af74 553e
000000d0: f568 463e 6a7a 393e 2bbf 203e 2762 b33d
000000e0: 520b df3b fa5d 32bd ad06 17be de62 7ebe
000000f0: 18d3 10be a1d8 5cbe 04a3 06be a977 b5bd
00000100: 5c89 28bc fa63 8e3d 7951 a43d 9a49 323e
00000110: 816a 133e c039 a23d f7d9 1d3e 4b7c 67bc
00000120: 1b79 433c 8af4 57bd 6233 01be aabb ecbd
00000130: caa0 b8bd ad8a 10bd 754a f1bd b7b1 b93d
00000140: 8624 41be 2d0a 28be 6558 1a3e d561 023e
00000150: 9c85 73bd dfd0 9fbd d0bf 15bd 3012 ddbd
00000160: 6c27 b23b 7cab e53a 0c40 2d3d 9cc4 6b3d
00000170: 1797 debc 0410 6dbd 7715 3dbd 4962 27bd
00000180: 949c 9e3d 1fe3 9e3d 7792 5e3e ef01 2b3e
00000190: c859 323e 2d9f 2f3e a0b1 fc3d a912 883d
000001a0: 7df9 dbbc 6d2b 52be be0f 81bd 06a4 c4bb
000001b0: f4ca 45be 7907 803d 08ec 4abd 3b87 1abe
000001c0: 8185 15be 121c fabd 4bf0 31bd 6003 4ebe
000001d0: 3528 c6bd f7b1 26bd aaae 88bd c660 b9bd
000001e0: bd5b 4a3c 1a80 a93d 59b9 993d 828e 103d
000001f0: f938 1e3e 779b be3d df7a 9a3d 579e c83c
00000200: 8d3f ce3d 9f5d 523e fbee 203e 49e7 e13d
00000210: 1c2c ca3d e949 5d3e 6d4c 743e f447 e9bc
00000220: ccd5 e2bd 8da3 4abd 01e3 abbd d286 45be
00000230: 97aa c0be 45f2 e1be d80f 70be a340 49be
00000240: 63de 25be 8ec8 123a 8f13 413c 76b9 7e3d
00000250: aee9 ad3c 7583 ce3d eafb ef3d 4366 f73c
00000260: 5c8f 393e 6c0e 3d3e 6e80 f53d ff10 6f3e
00000270: 3e1b ac3b c856 9bbd ec7c d7bd 70a4 3d3c
00000280: 6af5 78be d0a1 6bbe 95c6 74bb 12d7 11be
00000290: b6fb 69bd 58cd 2d3e 7c9d 253e 72f6 963d
000002a0: 32bc c23d eb4e 0a3e 64e7 a83c 2d47 023d
000002b0: 49f9 b23d 0b47 5c3e be0e 193e d609 673d
000002c0: a9e1 20be 4056 a7bd 33b7 69be 30f5 82be
000002d0: 760a 103d fa90 d43d 1769 293d f8aa f3bc
000002e0: abc6 10be dca4 4fbe da8b a4ba 9ad1 723d
000002f0: 2925 bcbd ee0e 663c db7f 1f3b f8f2 9dbd
00000300: 5c9f 38bc c72c ae3c 9811 f2ba d26c 1ebd
00000310: 5057 a63d 29c9 ec3d edac 273e afd0 bb3d
00000320: c325 0dbd 7c3a bc3d a4cc 433e 5e48 ae3d
00000330: 584b 3b3e 05b1 f13a 1377 5b3d ca45 abbd
00000340: 8cdf 3fbe d44d 00be dc6e 9abe f870 cebd
00000350: 5934 1fbe cd72 c9bc c659 18bd 4cc9 50be
00000360: 3859 21be 775c 86bd a911 133d e941 ba3a
00000370: 854d a73d 8c58 313e 26e7 153e 4b8e 153e
00000380: 954d f53d f7d8 233e 51ae 143e 5462 063e
00000390: 1e13 593e 935f 123d e83e b23d e04d b1bc
000003a0: f74a 29be 8e7d 23be 2c1c c7bd 8c32 ddbd
000003b0: 28be b33d d607 89bd 7136 50be 375e 78be
000003c0: b72d 293e 9a22 66bd f7fd 04be 38d4 08be
000003d0: 8b61 87be 4976 fa3c b3fe 98bd 0fa4 00be
000003e0: bdde 193d 8115 cc3d 403a d03c 49e4 a4bd
000003f0: 42cd 263b add8 ae3b 0e0a 02bd 437a c73d

conv1.bias f4 [32]
-0.06204764 -0.17977814 -0.044275634 -0.28036115 -0.15456451 0.06931012 -0.515117 0.18311356
0.17175591 -0.027743194 0.03515301 -0.61604434 -0.042268664 0.036610194 -0.14745796 0.19935858
-0.25732246 0.2820414 0.18468834 -0.23089887 -0.14445639 0.23691861 0.02317834 -0.045802377
0.27683794 0.08087901 0.17462778 0.043615315 -0.19996567 0.1788364 -0.108993426 -0.042681847
00000000: ab25 7ebd c317 38be 5e5a 35bd 7f8b 8fbe
00000010: 2946 1ebe 77f2 8d3d b5de 03bf 1f82 3b3e
00000020: c8e0 2f3e b245 e3bc 9afc 0f3d 15b5 1dbf
00000030: e821 2dbd 92f4 153d 38ff 16be a824 4c3e
00000040: c5bf 83be bb67 903e f11e 3d3e c170 6cbe
00000050: 60ec 13be cb9a 723e 81e0 bd3c 469b 3bbd
00000060: b4bd 8d3e e5a3 a53d a0d1 323e f9a5 323d
00000070: cdc3 4cbe e420 373e f237 dfbd 29d3 2ebd

bn1.weight f4 [32]
1.1288909 0.778281 0.70272964 0.85032433 1.0371625 1.4731979 1.288239 0.7089722
0.7048375 0.65323126 0.66525835 1.2988415 1.0539517 0.708031 0.68044823 0.99145055
1.0761733 0.9345298 1.2491051 1.0991418 0.68706226 0.8998449 0.82667005 0.80022377
0.95366025 0.67374015 1.0555484 0.62982273 0.8238427 1.3154478 0.85176134 1.0738817
00000000: 7f7f 903f 6c3d 473f 17e6 333f dbae 593f
00000010: bec1 843f c091 bc3f 04e5 a43f 347f 353f
00000020: 3b70 343f 2a3a 273f 5f4e 2a3f 7040 a63f
00000030: e4e7 863f 8541 353f db31 2e3f b4cf 7d3f
00000040: 0cc0 893f 583d 6f3f ade2 9f3f aeb0 8c3f
00000050: 50e3 2f3f 3c5c 663f a6a0 533f 77db 4c3f
00000060: 1423 743f 3c7a 2c3f 361c 873f 103c 213f
00000070: 5be7 523f 9860 a83f 080d 5a3f f574 893f

bn1.bias f4 [32]
-0.0012196722 0.18521503 0.017757824 -0.42377892 0.0050611575 0.0031214817 0.0049673035 0.008983044
0.12603016 -0.0013679262 0.26820782 0.00044897638 -0.005820392 0.016852748 0.035410106 0.0012485116
-0.010140867 0.06304466 0.0030038513 0.00165087 0.011476915 0.04221597 0.3754989 0.023392403
0.008693222 0.29568464 -0.01178523 0.06508723 0.018278157 0.0004551841 -0.014076414 0.024873802
00000000: 68dd 9fba 02a9 3d3e db78 913c 8df9 d8be
00000010: 11d8 a53b c691 4c3b c3c4 a23b 9e2d 133c
00000020: 0d0e 013e fd4b b3ba 8952 893e 9764 eb39
00000030: fdb8 bebb c60e 8a3c 300a 113d 19a5 a33a
00000040: e125 26bc 8f1d 813d 43dc 443b 0162 d83a
00000050: ac09 3c3c a7ea 2c3d 6441 c03e 6da1 bf3c
00000060: 046e 0e3c fa63 973e d616 41bc 744c 853d
00000070: 13bc 953c c7a5 ee39 c2a0 66bc 25c4 cb3c

bn1.running_mean f4 [32]
-0.063025296 -0.18013634 -0.044582255 -0.2808826 -0.154983 0.06868122 -0.5149071 0.18310915
0.17156348 -0.027806561 0.03537314 -0.6158335 -0.042933647 0.035626955 -0.14730902 0.19855046
-0.2576868 0.28075093 0.18426056 -0.23003551 -0.1448698 0.23749596 0.023053003 -0.04548608
0.27579877 0.081508115 0.17504123 0.043753296 -0.19967268 0.17698067 -0.108087085 -0.041508514
00000000: 6813 81bd a975 38be e29b 36bd d8cf 8fbe
00000010: ddb3 1ebe bda8 8c3d f4d0 03bf f780 3b3e
00000020: 56ae 2f3e 96ca e3bc 6de3 103d 44a7 1dbf
00000030: 31db 2fbd 92ed 113d 2dd8 16be d050 4b3e
00000040: 86ef 83be 96be 8f3e cdae 3c3e 6e8e 6bbe
00000050: c058 14be 2432 733e a7d9 bc3c 9d4f 3abd
00000060: 7f35 8d3e baed a63d 023e 333e a836 333d
00000070: ff76 4cbe 6c3a 353e c35c ddbd d504 2abd

bn1.running_var f4 [32]
0.05031402 0.031335115 0.023268927 0.025561316 0.036092926 0.0038338471 0.0015606759 0.0033498998
0.02890974 0.017065685 0.0018788006 0.00042429706 0.04451556 0.026349772 0.013575772 0.04815407
0.047352456 0.036373608 0.0072158524 0.01499834 0.0071864724 0.04007597 0.02417782 0.036232103
0.028476542 0.012208631 0.012621422 0.023195818 0.033517808 0.0066092354 0.03301577 0.02300245
00000000: 1316 4e3d 4059 003d 7a9e be3c f765 d13c
00000010: 2dd6 133d 4841 7b3b 988f cc3a fe89 5b3b
00000020: 1ed4 ec3c 56cd 8b3c 1642 f63a 3074 de39
00000030: f355 363d 7adb d73c ea6c 5e3c 343d 453d
00000040: a6f4 413d 7efc 143d f572 ec3b 99bb 753c
00000050: 807c eb3b b326 243d 9010 c63c 1d68 143d
00000060: a347 e93c b606 483c 15ca 4e3c 2805 be3c
00000070: f849 093d 4992 d83b 8b3b 073d a26f bc3c

conv2.weight f4 [32, 32, 3]
0.03417975 0.04458576 0.011582676 0.061935537 -0.04094378 -0.059399623 -0.11170944 -0.083453044
0.060512766 -0.040880658 -0.112947375 -0.04387209 0.027073275 -0.027319683 0.005406475 -0.2392618
-0.2720447 -0.12665965 0.17404167 0.060848575 0.111243054 0.09747164 -0.0028543246 0.11056487
0.0119267795 -0.026185105 -0.01346799 -0.037677582 0.06672532 0.01853368 0.16615221 0.09921279
-0.0024895603 0.10615418 -0.044110652 0.051880293 -0.028906625 -0.033171788 -0.039054632 -0.08834935
-0.111374505 -0.0147039415 0.043942 -0.1175323 0.018505337 0.036980417 0.079994865 0.053231724
-0.018786246 0.042252082 0.044593778 0.08638506 -0.029378187 0.006414849 -0.41467965 -0.3931115
-0.454801 0.12528028 -0.0050877207 0.2804105 0.081354804 0.02965427 0.019372478 0.16444637
-0.028468546 0.12561953 0.096253924 0.019516012 0.021687327 0.0020390674 0.020994507 -0.009468371
0.026408248 0.00877048 0.074704215 -0.049085654 -0.003391034 -0.10658206 0.005618125 -0.0076395646
0.11005783 -0.021221729 0.033021785 0.14628428 -0.106069684 0.023293847 0.16583769 -0.4210976
-0.512472 -0.3759757 0.008726239 0.03585266 -0.018064152 0.059434813 0.15870981 0.18777207
0.01989768 -0.020398771 -0.1431681 0.10218693 0.13963729 -0.1788617 -0.10005821 0.06294684
-0.007164468 -0.06714763 -0.13721201 0.037108757 0.057157706 -0.07646066 0.12519139 -0.20404974
-0.01268216 -0.0043505887 -0.14363089 -0.18151484 -0.40330842 0.045420907 -0.015684588 -0.072277755
0.05884041 -0.102599256 -0.107202314 0.11216652 0.21809654 0.083715275 0.03947174 0.07301595
-0.056803677 -0.4945956 -0.6472382 -0.62735075 0.11857681 -0.008119456 0.057118457 0.059171144
0.0037399048 -0.16972798 0.05570804 0.0796722 0.06891203 -0.013161419 0.008559003 -0.09854405
0.1325313 0.040832523 -0.14795116 0.12625037 0.09539971 0.0031293274 0.06635874 0.025642665
0.012506456 0.049707532 -0.06432012 -0.0713574 0.057591777 0.01883708 0.01792339 0.1919502
0.028274352 -0.08511394 0.09234587 -0.04558307 -0.12099919 -0.015204302 -0.15413508 -0.1074101
-0.06858262 0.008146781 0.01843854 -0.002336425 0.006836879 0.015852699 -0.01217705 0.05386356
0.030893682 0.07752257 0.051793203 -0.011755028 0.04993531 0.043766223 0.031167397 0.10068678
0.092839904 0.025489448 -0.052630663 -0.1337994 -0.13490608 -0.03333773 -0.019698722 -0.14804739
-0.03624333 -0.20561445 -0.06805009 -0.05562494 0.01130439 0.24963363 0.03468989 -0.027690843
0.13876262 -0.052733146 -0.26223263 0.0054411367 -0.107555434 -0.10287826 -0.12410717 -0.5516492
-0.5152456 -0.55404925 -0.037247468 -0.06538557 -0.1550157 -0.034517247 0.028093219 0.04389884
-0.06490616 0.02844521 0.11711743 0.04972145 0.01920268 0.26761553 -0.0482015 -0.039331287
-0.060113646 -0.1835206 -0.08624012 -0.058381747 -0.15024231 -0.10669446 -0.095278785 0.14114954
0.140697 0.05107106 0.09007483 0.09329691 -0.029660009 -0.04113519 0.0065239626 0.04668599
-0.05519739 -0.035267074 -0.02101816 -0.011916971 0.143288 0.160183 -0.14392947 -0.31264624
-0.11615486 0.11878578 0.087486275 0.03299657 -0.0067489925 -0.076535866 -0.04473954 -0.030320555
00000000: 1100 0c3d 8f9f 363d 44c5 3d3c 1eb0 7d3d
00000010: aab4 27bd 054d 73bd ebc7 e4bd 6ee9 aabd
00000020: 3cdc 773d 7a72 27bd f450 e7bd 38b3 33bd
00000030: c6c8 dd3c 87cd dfbc cd28 b13b 0c01 75be
00000040: 7149 8bbe 11b3 01be fb37 323e 5b3c 793d
00000050: 66d3 e33d 369f c73d 9f0f 3bbb d66f e23d
00000060: 8a68 433c 2582 d6bc d8a8 5cbc cf53 1abd
00000070: 49a7 883d f2d3 973c ce23 2a3e 1330 cb3d
00000080: e427 23bb 5d67 d93d 5fad 34bd 6e80 543d
00000090: 96cd ecbc 24df 07bd c0f7 1fbd 81f0 b4bd
000000a0: 5118 e4bd cde8 70bc 87fc 333d c6b4 f0bd
000000b0: 8198 973c c778 173d 59d4 a33d 8209 5a3d
000000c0: 9de5 99bc 8510 2d3d f7a7 363d a6ea b03d
000000d0: 86aa f0bc a733 d23b e450 d4be e945 c9be
000000e0: addb e8be 7949 003e e5b6 a6bb f791 8f3e
000000f0: 599d a63d 83ed f23c 08b3 9e3c a164 283e
00000100: de36 e9bc 68a2 003e c720 c53d 0be0 9f3c
00000110: 9fa9 b13c e0a1 053b acfc ab3c 3a21 1bbc
00000120: 1c56 d83c 0fb2 0f3c 86fe 983d 0a0e 49bd
00000130: 1c3c 5ebb b247 dabd 4018 b83b 5055 fabb
00000140: 0066 e13d 31d9 adbc da41 073d 8ccb 153e
00000150: 103b d9bd bdd2 be3c 5bd1 293e 1b9a d7be
00000160: 5d31 03bf e37f c0be 80f8 0e3c 3dda 123d
00000170: 46fb 93bc eb71 733d d384 223e 5247 403e
00000180: 7600 a33c 531b a7bc a99a 12be 6247 d13d
00000190: 14fd 0e3e 8627 37be 52eb ccbd 46ea 803d
000001a0: eac3 eabb b284 89bd 4e81 0cbe 5aff 173d
000001b0: 331e 6a3d 6897 9cbd 2c32 003e 6af2 50be
000001c0: d6c8 4fbc 628f 8ebb fa13 13be 07df 39be
000001d0: 717e cebe 460b 3a3d f77c 80bc 5c06 94bd
000001e0: a402 713d 8f1f d2bd e38c dbbd 8fb7 e53d
000001f0: b354 5f3e ea72 ab3d 1fad 213d 6389 953d
00000200: f9aa 68bd a23b fdbe 67b1 25bf 0f9a 20bf
00000210: 66d8 f23d 7707 05bc 0bf5 693d 715d 723d
00000220: 3119 753b 2ccd 2dbe 1d2e 643d 2e2b a33d
00000230: c021 8d3d fea2 57bc 0f3b 0c3c 76d1 c9bd
00000240: 49b6 073e 0140 273d 8280 17be c747 013e
00000250: ec60 c33d 6715 4d3b 17e7 873d 9110 d23c
00000260: e1e7 4c3c 209a 4b3d 44ba 83bd d423 92bd
00000270: 5be5 6b3d 3850 9a3c 13d4 923c 988e 443e
00000280: 9d9f e73c 3850 aebd d51f bd3d 50b5 3abd
00000290: 6cce f7bd 771b 79bc 96d5 1dbe d4f9 dbbd
000002a0: 0b75 8cbd 137a 053c 6c0c 973c b51e 19bb
000002b0: e607 e03b 85dd 813c 4082 47bc 09a0 5c3d
000002c0: bf14 fd3c 27c4 9e3d 1c25 543d 2998 40bc
000002d0: f888 4c3d 3644 333d c552 ff3c df34 ce3d
000002e0: d922 be3d 3fcf d03c 4093 57bd b602 09be
000002f0: d224 0abe 258d 08bd 375f a1bc bc99 17be
00000300: e373 14bd 988c 52be d85d 8bbd fad6 63bd
00000310: 0c36 393c f59f 7f3e fc16 0e3d e8d7 e2bc
00000320: ca17 0e3e b6fe 57bd 5b43 86be 904b b23b
00000330: 0646 dcbd d6b1 d2bd e62b febd e238 0dbf
00000340: 23e7 03bf 2cd6 0dbf cd90 18bd dfe8 85bd
00000350: 70bc 1ebe f561 0dbd c023 e63c 45cf 333d
00000360: 85ed 84bd ee05 e93c 43db ef3d b8a8 4b3d
00000370: f04e 9d3c e704 893e f06e 45bd d819 21bd
00000380: ba39 76bd d3ec 3bbe a99e b0bd b321 6fbd
00000390: 1fd9 19be a082 dabd 8621 c3bd 8189 103e
000003a0: e012 103e e32f 513d 2779 b83d 7312 bf3d
000003b0: 8cf9 f2bc 5f7d 28bd f7c6 d53b cf39 3f3d
000003c0: a916 62bd 3574 10bd 472e acbc 663f 43bc
000003d0: 17ba 123e 0307 243e 3f62 13be 2b13 a0be
000003e0: 99e2 edbd f645 f33d 012c b33d 6927 073d
000003f0: a726 ddbb d6be 9cbd cf40 37bd d062 f8bc

conv2.bias f4 [32]
-0.103683434 -0.09083539 -0.035147797 0.081728764 -0.042600997 0.12181015 0.042497464 0.025618725
0.09607851 -0.0066914917 0.2436024 -0.021118086 0.04822915 0.0844566 0.10971541 0.025676396
-0.053643364 0.07395479 -0.011581063 -0.07537092 -0.024566138 0.09800577 0.1139445 0.042320635
-0.017739262 -0.07271478 0.017983751 -0.09454413 0.10416317 0.091752686 -0.009096977 0.11404497
00000000: fb57 d4bd e807 babd 23f7 0fbd 6961 a73d
00000010: 627e 2ebd 9a77 f93d d211 2e3d 5cde d13c
00000020: cfc4 c43d 4d44 dbbb e872 793e d6ff acbc
00000030: ee8b 453d 95f7 ac3d 79b2 e03d 4e57 d23c
00000040: 25b9 5bbd 9c75 973d 80be 3dbc 125c 9abd
00000050: ed3e c9bc 40b7 c83d bc5b e93d 6758 2d3d
00000060: ee51 91bc 7deb 94bd a952 933c 5aa0 c1bd
00000070: 8053 d53d d5e8 bb3d 7d0b 15bc 6990 e93d

bn2.weight f4 [32]
1.2991568 1.3240132 1.4245414 0.46406797 1.8150932 1.1540614 0.6343078 1.5338281
1.7452184 0.6117099 0.83068657 0.7282945 1.0504953 1.0517247 0.72463083 0.5676007
0.6564453 0.47470406 1.9360476 1.6857634 1.631839 0.9292398 1.3576744 0.47459343
1.0690908 0.8042781 0.5400696 1.4759241 0.4970895 0.8361068 1.4051114 1.1138929
00000000: c54a a63f 4479 a93f 5f57 b63f 519a ed3e
00000010: f954 e83f 49b8 933f ff61 223f 7b54 c43f
00000020: 5163 df3f 0599 1c3f e0a7 543f 8271 3a3f
00000030: a176 863f ea9e 863f 6881 393f 484e 113f
00000040: cd0c 283f 690c f33e 68d0 f73f 18c7 d73f
00000050: 1ae0 d03f a9e2 6d3f 46c8 ad3f e9fd f23e
00000060: f8d7 883f 2be5 4d3f 0042 0a3f 15eb bc3f
00000070: 8482 fe3e 180b 563f b1da b33f 0b94 8e3f

bn2.bias f4 [32]
-0.06328198 -0.2786297 0.2778034 0.4060422 -0.09464004 -0.08601088 0.16228719 -0.23557225
-0.33424824 0.35029566 0.19212899 0.49432 -0.23087463 -0.27927125 -0.06303302 0.3534028
0.25443137 0.14316417 -0.51099503 -0.41304433 0.035178907 -0.19081546 -0.33010322 0.15782526
-0.10239912 0.4008788 0.22322886 -0.22735694 0.3632533 0.3042027 0.0012828744 0.14254917
00000000: fc99 81bd 8da8 8ebe 3f3c 8e3e c3e4 cf3e
00000010: a3d2 c1bd 7926 b0bd 9d2e 263e da39 71be
00000020: 9622 abbe f459 b33e 76bd 443e 8317 fd3e
00000030: 666a 6cbe a4fc 8ebe 7517 81bd 36f1 b43e
00000040: d444 823e a199 123e 92d0 02bf 8c7a d3be
00000050: c217 103d 2165 43be 4a03 a9be f29c 213e
00000060: a1b6 d1bd fc3f cd3e 1b96 643e 42d0 68be
00000070: 56fc b93e 75c0 9b3e 1f26 a83a 69f8 113e

bn2.running_mean f4 [32]
-0.58401996 -1.1789439 -1.5771555 0.90172696 -1.8231505 -0.6040212 0.45823768 -1.7546482
-1.8265283 0.41212228 -0.30196193 -0.6312438 -1.0288402 -0.6801411 -1.0846126 0.88000065
-0.2010379 1.1277966 -2.8950827 -2.6784873 -1.2042848 -0.6854292 -1.1761909 1.386488
-0.6045712 -0.9618179 1.2027806 -1.9193271 0.92708635 -0.36448994 -1.4562365 -1.0404032
00000000: 5582 15bf a2e7 96bf 3be0 c9bf 94d7 663f
00000010: ff5c e9bf 22a1 1abf 219e ea3e 5098 e0bf
00000020: aecb e9bf b101 d33e c19a 9abe 3299 21bf
00000030: 09b1 83bf ba1d 2ebf 96d4 8abf b947 613f
00000040: e1dc 4dbe a45b 903f 0949 39c0 566c 2bc0
00000050: 0126 9abf 4a78 2fbf 6c8d 96bf 7078 b13f
00000060: 2ec5 1abf b339 76bf b7f4 993f 83ac f5bf
00000070: 8855 6d3f 6d9e babe f565 babf ef2b 85bf

bn2.running_var f4 [32]
9.564547 11.162371 22.199492 3.2765336 43.662724 11.848288 3.3345597 15.013046
36.686436 8.514453 6.1726155 5.3311787 4.966122 2.8998435 4.2297173 7.357658
4.3390846 4.050332 57.39582 17.909317 16.672222 3.2093194 7.1516848 9.557069
6.5922084 6.674444 5.931781 15.876791 6.9338617 4.843303 12.435487 8.958255
00000000: 6208 1941 1299 3241 8f98 b141 bab2 5140
00000010: a1a6 2e42 9692 3d41 6d69 5540 7035 7041
00000020: e9be 1242 333b 0841 1186 c540 0499 aa40
00000030: 79ea 9e40 0997 3940 d859 8740 ef71 eb40
00000040: c8d9 8a40 529c 8140 5295 6542 4846 8f41
00000050: b660 8541 7d65 4d40 9ada e440 c1e9 1841
00000060: 5ff3 d240 0c95 d540 26d1 bd40 5607 7e41
00000070: 32e2 dd40 57fc 9a40 c1f7 4641 0355 0f41

conv3.weight f4 [64, 32, 3]
-0.09413755 0.15290765 -0.029650625 0.06787897 -0.10258933 -0.2252413 0.4134995 0.19029003
-0.30046067 -0.05640577 -0.034220014 -0.0012303845 0.058150128 0.28167263 -0.11501002 -0.1394988
0.092302755 0.07907756 -0.33185822 0.0253149 -0.043856863 -0.009405174 -0.25995764 -0.06272202
0.30717194 -0.11497536 -0.14905098 -0.09284494 -0.1468021 0.12010877 -0.07934967 0.058254007
-0.10678668 0.15827172 -0.17934294 -0.13171487 -0.021999344 -0.05874193 0.019695174 -0.22336435
-0.37770993 -0.2835881 -0.023271104 -0.09252814 -0.12879635 0.063988686 -0.058515284 0.17944597
0.010309641 0.09398695 0.017574666 -0.1756035 0.09833054 -0.11601147 0.25130257 0.25904694
-0.14356853 0.083702624 -0.100278154 0.13032587 0.12683265 0.099635854 -0.25903353 0.035331037
-0.22382735 0.09610811 -0.1650403 -0.16618943 0.2464077 -0.08611828 0.018966177 0.09282768
-0.31340528 0.014171571 -0.08861814 -0.081017524 -0.0550581 0.11139496 -0.20252483 -0.16480829
0.013176882 0.12311645 -0.14129117 0.08662732 0.029208804 -0.084200524 -0.0025965262 0.0036578095
-0.08619641 -0.067874804 0.20807993 0.12782879 -0.08713555 0.23750305 -0.016556524 -0.14202112
0.12422822 0.009390173 -0.20647039 -0.07904391 -0.09857499 0.10420617 0.114349835 0.113483794
-0.21725436 -0.08534085 0.0118722 -0.03703597 0.15703866 0.13488148 -0.3165622 -0.1576227
-0.18345247 0.025005125 -0.0026585988 -0.008132074 0.021133507 0.19712704 -0.16599245 -0.030893378
0.13228455 0.27835342 -0.0030954748 -0.32263747 0.03156164 -0.024262019 -0.064548135 0.17291331
-0.034282837 -0.0005945517 0.20820928 -0.031679515 0.11805815 -0.19712424 -0.20255418 0.13759072
-0.083229415 -0.38884816 0.044450004 0.016367951 -0.12727125 0.075700894 0.0645087 -0.080520995
-0.02377969 -0.39274994 -0.12618496 -0.11690575 0.019763306 -0.07055442 0.5564166 0.113889635
-0.1145089 0.36191073 0.096529156 -0.1606014 0.33092055 -0.17620726 0.07926237 0.050433
0.020545155 0.03725228 0.25771776 0.09542594 0.032220144 -0.12892962 -0.10695572 -0.116396934
-0.22656345 -0.11466095 0.14515641 -0.14453389 0.054227095 0.09853849 -0.004778101 -0.090004444
-0.16463415 -0.01275503 -0.041844975 -0.020683702 -0.18128459 0.08774189 -0.0008937998 -0.030363979
0.031584743 -0.116915755 0.18145512 -0.3152421 -0.14493164 -0.16708781 0.04493292 -0.05036064
-0.09930874 -0.09860473 -0.042273458 0.111694634 0.12868243 -0.0018355501 0.032931406 0.27938366
0.034856003 0.06078747 -0.10662697 0.06674843 -0.03062204 0.3074837 0.013790084 -0.05938736
-0.11633115 -0.07132438 0.026898198 -0.0024121522 -0.015082023 0.20228463 0.45735106 0.3365059
0.19266225 0.61115897 0.11914245 0.06032687 -0.2315976 0.007207332 -0.22080387 0.017497478
-0.059158687 0.046835877 0.15579228 0.1048409 0.26045597 0.08771888 -0.16164403 -0.05598084
0.0009200999 0.036960173 -0.1233329 0.16622956 0.028490249 0.00092080433 -0.09716941 -0.017560942
-0.06614815 -0.095152274 -0.03592868 0.16402453 0.027831623 0.0038836503 0.0071910876 0.525135
0.29158992 0.40198994 0.5146805 0.024447663 -0.19389464 -0.12535283 0.04796151 0.113242194
00000000: 30cb c0bd d393 1c3e dee5 f2bc 2104 8b3d
00000010: 5b1a d2bd a8a5 66be 35b6 d33e 64db 423e
00000020: fbd5 99be bd09 67bd 492a 0cbd da44 a1ba
00000030: d42e 6e3d 6537 903e 608a ebbd c6d8 0ebe
00000040: 3a09 bd3d 6af3 a13d 52e9 a9be 3161 cf3c
00000050: 41a3 33bd 2918 1abc 2b19 85be 6774 80bd
00000060: a445 9d3e 3478 ebbd d2a0 18be 7d25 bebd
00000070: 4a53 16be 96fb f53d 1482 a2bd c19b 6e3d
00000080: fab2 dabd fb11 223e ada5 37be 43e0 06be
00000090: f837 b4bc 619b 70bd c657 a13c a0b9 64be
000000a0: 3263 c1be 7632 91be 0ba3 bebc 657f bdbd
000000b0: 31e3 03be 800c 833d b9ad 6fbd afc0 373e
000000c0: c5e9 283c 3b7c c03d bff8 8f3c 67d1 33be
000000d0: 8661 c93d 6c97 edbd bbaa 803e cda1 843e
000000e0: a103 13be 486c ab3d a25e cdbd 2574 053e
000000f0: 6be0 013e e20d cc3d 0ba0 84be 47b7 103d
00000100: ff32 65be 54d4 c43d 5300 29be 902d 2abe
00000110: 4d52 7c3e c85e b0bd f55e 9b3c 701c be3d
00000120: a876 a0be e02f 683c 6d7d b5bd 84ec a5bd
00000130: 9a84 61bd 0a23 e43d ab62 4fbe 81c3 28be
00000140: d9e3 573c 7a24 fc3d a2ae 10be aa69 b13d
00000150: 4d47 ef3c 5371 acbd 7b2a 2abb dcb7 6f3b
00000160: be87 b0bd f201 8bbd e812 553e 8de5 023e
00000170: 2074 b2bd 0034 733e 8ca1 87bc fc6d 11be
00000180: 5d6b fe3d 3dd9 193c f96c 53be c6e1 a1bd
00000190: afe1 c9bd 0b6a d53d 3f30 ea3d 316a e83d
000001a0: ed77 5ebe 2fc7 aebd 9e83 423c 07b3 17bd
000001b0: bece 203e 5f1e 0a3e 7114 a2be d867 21be
000001c0: f7da 3bbe 8cd7 cc3c e33b 2ebb 643c 05bc
000001d0: 2d20 ad3c acdb 493e edf9 29be 1c14 fdbc
000001e0: 9a75 073e 5784 8e3e 73dd 4abb bd30 a5be
000001f0: c746 013d 24c1 c6bc d031 84bd 3010 313e
00000200: 296c 0cbd b0db 1bba d034 553e 61c2 01bd
00000210: 79c8 f13d f0da 49be 5d6a 4fbe 95e4 0c3e
00000220: 2f74 aabd 1b17 c7be 3511 363d 1516 863c
00000230: 6553 02be 1209 9b3d 231d 843d 31e8 a4bd
00000240: a0cd c2bc 8516 c9be a136 01be 486c efbd
00000250: a8e6 a13c d67e 90bd 5171 0e3f f83e e93d
00000260: a483 eabd 5d4c b93e 14b1 c53d b274 24be
00000270: 6b6e a93e ad6f 34be 4f54 a23d d592 4e3d
00000280: 504e a83c d995 183d 95f3 833e ad6e c33d
00000290: 45f9 033d 2006 04be 9a0b dbbd 8461 eebd
000002a0: 4000 68be 5cd3 eabd e2a3 143e b100 14be
000002b0: 3b1d 5e3d 8cce c93d 9e91 9cbb 4054 b8bd
000002c0: db95 28be 79fa 50bc a365 2bbd de70 a9bc
000002d0: aba2 39be 05b2 b33d e44d 6aba e1bd f8bc
000002e0: 015f 013d 8771 efbd 5fcf 393e 6a67 a1be
000002f0: f668 14be 1119 2bbe 950b 383d f546 4ebd
00000300: 6162 cbbd 47f1 c9bd ef26 2dbd 28c0 e43d
00000310: 54c5 033e d796 f0ba 15e3 063d 600b 8f3e
00000320: 2bc5 0e3d 48fc 783d 3e5f dabd 67b3 883d
00000330: 13db fabc 816e 9d3e ceef 613c 2940 73bd
00000340: 073f eebd 8412 92bd 9c59 dc3c 3315 1ebb
00000350: 971a 77bc b423 4f3e eb29 ea3e 804a ac3e
00000360: 4149 453e ea74 1c3f f500 f43d 4f19 773d
00000370: ec27 6dbe 7c2b ec3b 691a 62be df56 8f3c
00000380: 6150 72bd fad6 3f3d 0388 1f3e d3b6 d63d
00000390: 7c5a 853e f5a5 b33d 0386 25be 2a4c 65bd
000003a0: dc32 713a 8d63 173d f695 fcbd 1538 2a3e
000003b0: 6264 e93c 2262 713a c100 c7bd f7db 8fbc
000003c0: ae78 87bd 32df c2bd f429 13bd 0cf6 273e
000003d0: 25ff e33c d784 7e3b 37a3 eb3b 3f6f 063f
000003e0: 464b 953e a0d1 cd3e 1ac2 033f 7746 c83c
000003f0: 518c 46be 7e5c 00be 4a73 443d 86eb e73d

conv3.bias f4 [64]
0.096697435 -0.025708262 -0.0039505246 -0.0502324 -0.013056155 0.051182497 0.0126985945 0.18355349
0.048702024 0.01159507 0.10042913 -0.007257607 0.14483725 0.022474982 0.09744426 0.13076316
-0.03207546 0.054337278 0.042925354 0.04068243 0.072850205 -0.106585994 0.19891907 -0.054915693
-0.007962631 -0.0019495523 0.10805538 0.045901366 0.09913727 0.07248449 0.037735708 0.13544421
-0.0041225385 -0.004366771 0.10457874 0.06350605 -0.0238603 0.04131314 0.075822555 0.11874388
-0.044171855 -0.07620321 -0.04978875 0.16272026 0.14539345 0.0131654395 -0.07420854 0.0400703
0.13952701 0.072364956 0.08556315 -0.036104377 0.14780298 0.050449137 0.025257908 -0.035853516
-0.044078186 0.13447073 0.048384015 -0.03989398 0.056206133 0.008305159 -0.03478735 0.07126756
00000000: 4e09 c63d 229a d2bc 6773 81bb 7dc0 4dbd
00000010: 7ce9 55bc bda4 513d c40d 503c 72f5 3b3e
00000020: c67b 473d 40f9 3d3c caad cd3d 38d1 edbb
00000030: 3750 143e 741d b83c db90 c73d c7e6 053e
00000040: 8f61 03bd c490 5e3d 7fd2 2f3d 9fa2 263d
00000050: 7d32 953d c249 dabd 71b1 4b3e 47ef 60bd
00000060: b275 02bc 1f88 ffba 244c dd3d 1203 3c3d
00000070: 7b08 cb3d c072 943d c290 1a3d e3b1 0a3e
00000080: 5c16 87bb 2117 8fbb 612d d63d 760f 823d
00000090: ad76 c3bc f837 293d db48 9b3d fe2f f33d
000000a0: 8ced 34bd 6e10 9cbd 4aef 4bbd 24a0 263e
000000b0: 05e2 143e dbb3 573c a6fa 97bd c120 243d
000000c0: 2be0 0e3e 1434 943d bc3b af3d 2fe2 13bd
000000d0: aa59 173e c1a3 4e3d ace9 ce3c 23db 12bd
000000e0: 548b 34bd b2b2 093e 512e 463d df67 23bd
000000f0: 6738 663d 5d12 083c 2e7d 0ebd baf4 913d

bn3.weight f4 [64]
1.1109807 1.1353738 1.285878 0.9278999 0.7935439 1.2556794 1.0199068 0.59888965
1.0789837 0.43992314 0.4399395 1.2667861 0.5228688 1.2564565 1.0322406 1.2405964
1.1077974 0.87469155 0.45379052 0.9909677 1.0504006 0.99021184 1.0672498 1.1356962
1.3683095 0.96005386 1.0445675 1.0864059 1.0352715 0.60077703 1.0710642 0.9548281
1.0328544 1.1461551 1.0208744 1.2274626 1.0410894 0.49943227 0.9612864 0.81857944
1.1138239 1.2497491 1.0623088 0.7349214 0.55919707 1.1850469 0.99296916 0.5801185
0.5244128 0.6063905 0.40987092 1.4681349 1.1945356 1.2031687 1.1525106 0.5637711
1.000341 0.9473833 1.168043 1.286165 1.133992 0.9267507 1.3447676 1.0168724
00000000: 9e34 8e3f ee53 913f a697 a43f d98a 6d3f
00000010: b125 4b3f 1aba a03f 4e8c 823f d550 193f
00000020: 231c 8a3f 9b3d e13e c03f e13e 0c26 a23f
00000030: bbda 053f 91d3 a03f 7620 843f ddcb 9e3f
00000040: 4ecc 8d3f c9eb 5f3f 3b57 e83e 0fb0 7d3f
00000050: 8773 863f 867e 7d3f a49b 883f 7e5e 913f
00000060: c424 af3f 17c6 753f 63b4 853f 590f 8b3f
00000070: c783 843f 86cc 193f a218 893f 9d6f 743f
00000080: 9334 843f 36b5 923f 03ac 823f 7f1d 9d3f
00000090: 6b42 853f 96b5 ff3e de16 763f 6c8e 513f
000000a0: c891 8e3f c7f7 9f3f bcf9 873f cf23 3c3f
000000b0: 8a27 0f3f 9eaf 973f 3a33 7e3f a582 143f
000000c0: eb3f 063f 683c 1b3f 9ada d13e d8eb bb3f
000000d0: 8be6 983f 6f01 9a3f 7885 933f 4e53 103f
000000e0: 2d0b 803f b687 723f 6f82 953f 0ea1 a43f
000000f0: a626 913f 893f 6d3f 5821 ac3f e028 823f

bn3.bias f4 [64]
-0.47126803 -0.25558573 -0.90334076 -0.34328645 -0.1635722 -0.3201681 -0.11825587 0.103041254
-0.43410587 -0.07624996 -0.031531245 -0.44670758 0.0052095815 -0.46423647 -0.45558032 -0.60303813
-0.41535848 -0.32260123 -0.36170503 -0.29530257 -0.42590317 -0.65014285 -0.44197437 -0.28777903
-0.43986234 -0.17723426 -0.35764447 0.0011378804 -0.3019719 -0.14108191 -0.4237856 -0.544814
-0.20568025 -0.15458326 -0.28840697 -0.5247838 -0.26128262 0.1924384 -0.25315183 -0.1700778
-0.39255956 0.30436987 -0.3605051 -0.0755822 -0.2513817 -0.48520198 -0.3391044 0.030931098
-0.2097513 0.21283066 -0.036763284 -0.48435816 -0.52977574 -0.044364806 -0.3447443 -0.019050648
-0.16991508 -0.18599746 -0.35158756 -0.29452032 -0.64158976 -0.25761056 -0.48656738 -0.41336185
00000000: 0b4a f1be 22dc 82be 5741 67bf 3ec3 afbe
00000010: 797f 27be 13ed a3be 2230 f2bd 4b07 d33d
00000020: 2043 debe f028 9cbd e826 01bd dbb6 e4be
00000030: 23b5 aa3b 67b0 edbe d341 e9be b560 1abf
00000040: dea9 d4be fd2b a5be 6731 b9be e631 97be
00000050: fb0f dabe c36f 26bf 774a e2be c657 93be
00000060: a335 e1be e67c 35be 2d1d b7be ee24 953a
00000070: 109c 9abe c777 10be 6dfa d8be ee78 0bbf
00000080: d89d 52be 134b 1ebe 14aa 93be 3b58 06bf
00000090: d6c6 85be 920e 453e 1e9d 81be e028 2ebe
000000a0: 91fd c8be 5ed6 9b3e 2094 b8be d7ca 9abd
000000b0: 1ab5 80be 656c f8be 189f adbe 3763 fd3c
000000c0: 0bc9 56be 48f0 593e 1995 16bd cbfd f7be
000000d0: 629f 07bf dfb7 35bd 5382 b0be 1b10 9cbc
000000e0: 38fe 2dbe 1e76 3ebe 4903 b4be 5ecb 96be
000000f0: 3a3f 24bf 88e5 83be 5c1f f9be 2aa4 d3be

bn3.running_mean f4 [64]
-0.3179656 -0.6289148 1.3099921 -0.4638899 -1.9608582 -0.6509606 -0.987854 -1.006467
-0.19168939 -0.7600143 -0.89683384 -0.71802384 -0.75950253 -0.9335081 -0.6093987 -0.06777552
-1.0044491 -0.67165977 -0.47551167 -1.3835616 -0.3461749 -0.24880122 -0.3913634 -1.0692514
-0.18983284 -1.0198764 -1.0082831 -0.59852713 -0.4730028 -0.6858561 -0.58050597 -0.7506081
-1.2350496 -0.8668499 0.0031523525 -0.19872707 -0.6265156 -1.3785837 -0.55619156 -1.115144
-0.6396346 -0.3231592 -0.5569243 -0.5373055 -0.67976713 -0.07232441 -1.1151164 -0.599683
-0.31621414 -2.1055367 -1.6632591 -0.5533297 -0.69165474 -0.94462496 -0.26632413 -1.3091297
-0.59519786 -1.0863199 -0.5765392 -1.8662504 0.10594217 -1.183922 -0.47222793 -1.1334755
00000000: 63cc a2be 8f00 21bf d2ad a73f fa82 edbe
00000010: 67fd fabf 5ba5 26bf 00e4 7cbf e9d3 80bf
00000020: 394a 44be 4c90 42bf e796 65bf 69d0 37bf
00000030: c26e 42bf 63fa 6ebf 8e01 1cbf e4cd 8abd
00000040: ca91 80bf e5f1 2bbf 4476 f3be 8c18 b1bf
00000050: d63d b1be bfc5 7ebe c960 c8be 3bdd 88bf
00000060: 8a63 42be 4f8b 82bf 6c0f 81bf 1339 19bf
00000070: 6c2d f2be 4494 2fbf 0a9c 14bf da27 40bf
00000080: 1b16 9ebf e0e9 5dbf b397 4e3b 1c7f 4bbe
00000090: 5463 20bf 6e75 b0bf 9262 0ebf 0abd 8ebf
000000a0: 18bf 23bf 1f75 a5be 9792 0ebf da8c 09bf
000000b0: 3805 2ebf d21e 94bd 22bc 8ebf d384 19bf
000000c0: d2e6 a1be 1dc1 06c0 ade5 d4bf 04a7 0dbf
000000d0: 4910 31bf f1d2 71bf a35b 88be 9091 a7bf
000000e0: e35e 18bf 880c 8bbf 1398 13bf 4be1 eebf
000000f0: 35f8 d83d c28a 97bf dcc7 f1be ba15 91bf

bn3.running_var f4 [64]
0.6587451 0.9008677 0.94444567 0.52732277 0.9686073 0.8831691 1.072052 0.50734395
0.7807966 0.59911263 0.32988828 1.1062973 0.8263507 0.8092992 0.43190077 0.2882581
1.068213 0.52008057 0.82883775 0.9820369 0.61549795 0.42036965 0.6390528 1.4230369
0.94164634 0.7459038 0.94115174 1.2370014 0.74195063 0.30690777 1.0486544 0.6489554
0.7284662 2.0188086 0.6983238 0.7709867 0.7549927 0.6792052 0.45186242 0.6549229
0.6692476 2.0302985 0.35295907 0.43088406 0.29712263 1.0471771 0.7566271 0.29932252
0.37844312 1.0477325 0.52156574 0.56923276 0.78889245 1.422532 0.74121654 0.7280659
1.019568 0.9636616 0.88230014 1.9625946 0.5258119 1.1207047 1.1697711 0.68235445
00000000: 85a3 283f 449f 663f 31c7 713f a0fe 063f
00000010: a6f6 773f 5f17 623f 0039 893f 4be1 013f
00000020: 49e2 473f 725f 193f 1ee7 a83e 269b 8d3f
00000030: b88b 533f 3b2e 4f3f 1922 dd3e 9196 933e
00000040: 34bb 883f 0024 053f b62e 543f c566 7b3f
00000050: 4691 1d3f b13a d73e f798 233f 1326 b63f
00000060: bc0f 713f 8df3 3e3f 52ef 703f 1056 9e3f
00000070: 7af0 3d3f 0423 9d3e 4f3a 863f f121 263f
00000080: c37c 3a3f 2934 0140 59c5 323f 625f 453f
00000090: 3447 413f 64e0 2d3f 835a e73e 07a9 273f
000000a0: d053 2b3f 69f0 0140 0db7 b43e d69c dc3e
000000b0: 7520 983e e609 863f 50b2 413f cd40 993e
000000c0: 4cc3 c13e 191c 863f 5585 053f 3db9 113f
000000d0: dbf4 493f 8715 b63f 5ec0 3d3f 8762 3a3f
000000e0: 3481 823f 87b2 763f 6cde 613f 4d36 fb3f
000000f0: 9c9b 063f 4073 8f3f 0fbb 953f c8ae 2e3f

conv4.weight f4 [64, 64, 3]
0.06825423 0.07356369 -0.17074876 0.19236827 0.025650155 -0.030053148 -0.16260284 0.0066820327
0.073726706 0.10050926 0.03842498 -0.015178398 0.05745117 0.23658156 0.04801268 -0.029628346
-0.20640424 -0.0714735 0.10676519 0.025064215 0.31009817 0.025736758 0.018696964 0.12291404
-0.032159176 -0.01563171 0.111102924 0.075186245 0.08609702 0.10386955 0.04166001 0.0995888
0.12625782 -0.037225522 0.046451166 0.26832464 -0.16654783 0.027010465 0.015777204 0.10427711
-0.14075793 -0.064164504 0.20897967 0.24305521 0.10647649 0.23980592 0.28891486 -0.2009352
-0.08682714 -0.17314067 -0.19778751 0.03769647 -0.0915736 -0.06258073 0.064999565 0.07001685
-0.09162259 -0.14977892 0.0027668208 -0.098294735 -0.19785708 -0.21152923 -0.19152273 0.01903212
0.32272404 0.08794299 -0.027564466 0.111147575 -0.11720576 0.20446257 0.114688724 0.0452107
0.025083855 0.25325748 0.00089723046 0.06152258 0.012881198 -0.15401796 -0.22304142 -0.045102313
-0.12585998 0.0039682635 0.034233436 0.009777463 -0.053431492 -0.22514828 -0.28607884 -0.23739219
-0.1369329 -0.18573007 -0.38242164 -0.19445391 -0.013292397 0.07214506 -0.09579348 -0.103947274
-0.022827223 0.19618946 0.10256457 0.01889663 -0.020550707 0.048225313 0.12098803 -0.058294494
0.069376424 -0.14067848 -0.15860748 -0.025675377 -0.14307237 -0.21163063 -0.14575127 0.088472515
-0.109447196 0.09985366 -0.21151957 -0.14757866 0.259163 -0.061126176 -0.046404056 0.00936692
0.14615318 0.078186214 -0.066101186 -0.11412837 -0.06664772 -0.23535538 0.08818068 0.04944271
-0.022091353 0.08876807 0.06582441 -0.0058138054 -0.11571791 0.049919765 0.08522069 0.14524442
0.17822042 0.1306734 0.20048736 0.033935864 0.14642592 0.1718811 -0.0047952062 0.1619663
-0.025851281 -0.050862327 -0.071164116 -0.048402082 0.03767741 -0.03307607 -0.036508426 -0.05618163
-0.09009727 0.4871152 -0.061983112 -0.02578001 0.11765429 0.25980395 -0.0018523841 0.059295822
0.019157384 0.11103819 -0.038575668 0.09400524 0.030277403 -0.02771483 0.172561 0.019334868
0.11357866 0.06515485 0.013356846 -0.18988112 0.013797053 0.04226131 -0.25735587 -0.046849526
-0.0202141 0.16735123 0.090807706 -0.085991785 -0.04896752 0.0036941853 -0.06620187 0.09581882
-0.016259165 0.10664763 -4.8485777e-05 0.116550796 0.21199317 0.0015123109 0.07192391 0.10246767
0.041199446 -0.14910287 0.017813968 0.052943323 0.133004 -0.081035115 -0.35548738 -0.09696813
-0.67914206 0.36623433 -0.046419565 0.19491561 -0.013789088 -0.07511118 0.03789598 0.0069645527
0.09069083 0.030138018 -0.080936275 0.07827296 -0.111652896 0.12004935 0.15217939 -0.025700603
0.11981844 -0.14477892 -0.094843715 -0.01583049 -0.0407082 -0.22800782 0.08474476 0.032979105
-0.20467812 -0.1682211 0.035336826 -0.15499015 -0.012257818 -0.072444655 -0.07602946 -0.31673428
-0.033950306 -0.20406796 -0.021789739 0.038444053 0.017547945 0.005069781 0.06693835 0.34400833
-0.121096894 -0.09568775 -0.2078219 0.05161676 0.010637841 0.07141695 0.033210244 -0.09433669
0.059779666 0.049986765 0.06653802 0.0145534575 -0.103192374 0.024659952 0.034048565 -0.0077987774
00000000: e0c8 8b3d 8fa8 963d c3d8 2ebe 30fc 443e
00000010: 4620 d23c 0532 f6bc 5c81 26be f4f4 da3b
00000020: 07fe 963d cdd7 cd3d 8363 1d3d d1ae 78bc
00000030: eb51 6b3d 7042 723e f2a8 443d 25b7 f2bc
00000040: a25b 53be b360 92bd b5a7 da3d 7853 cd3c
00000050: 30c5 9e3e e5d5 d23c 602a 993c 5bba fb3d
00000060: 57b9 03bd 120e 80bc ee89 e33d 3ffb 993d
00000070: a253 b03d 8fb9 d43d b0a3 2a3d 36f5 cb3d
00000080: bb49 013e ca79 18bd 9443 3e3d d961 893e
00000090: 848b 2abe 0d45 dd3c 323f 813c 3d8f d53d
000000a0: d922 10be ae68 83bd c4fe 553e 77e3 783e
000000b0: 5910 da3d af8f 753e a6ec 933e f5c1 4dbe
000000c0: 6dd2 b1bd ca4b 31be cf88 4abe 9d67 1a3d
000000d0: f18a bbbd 532a 80bd 7e1e 853d ff64 8f3d
000000e0: a0a4 bbbd a55f 19be 8d53 353b c04e c9bd
000000f0: 0c9b 4abe 1e9b 58be 891e 44be 40e9 9b3c
00000100: 163c a53e 741b b43d e0ce e1bc 57a1 e33d
00000110: 9309 f0bd a35e 513e ece1 ea3d db2e 393d
00000120: a87c cd3c f7aa 813e 1e34 6b3a 1aff 7b3d
00000130: a90b 533c e2b6 1dbe f864 64be 34bd 38bd
00000140: 70e1 00be 3508 823b 5c38 0c3d a731 203c
00000150: fbda 5abd 458d 66be ed78 92be f016 73be
00000160: 2338 0cbe 0630 3ebe c5cc c3be ed1e 47be
00000170: 5bc8 59bc cac0 933d 5f2f c4bd 4fe2 d4bd
00000180: 2800 bbbc e4e5 483e 600d d23d 1bcd 9a3c
00000190: f559 a8bc e887 453d 93c8 f73d 35c6 6ebd
000001a0: 3a15 8e3d 050e 10be 006a 22be 2b55 d2bc
000001b0: 9081 12be b3b5 58be d23f 15be 1431 b53d
000001c0: da25 e0bd 1380 cc3d 9698 58be dc1e 17be
000001d0: 03b1 843e 715f 7abd 2e12 3ebd b677 193c
000001e0: 2ea9 153e 1820 a03d 0f60 87bd 23bc e9bd
000001f0: 9a7e 88bd 0001 71be 1398 b43d 7084 4a3d
00000200: edf8 b4bc 09cc b53d f3ce 863d bc81 bebb
00000210: 83fd ecbd ab78 4c3d 2f88 ae3d f4ba 143e
00000220: 6a7f 363e 3fcf 053e 8f4c 4d3e 5500 0b3d
00000230: adf0 153e 9901 303e 1b21 9dbb 7eda 253e
00000240: 11c6 d3bc 0455 50bd 7ebe 91bd 4341 46bd
00000250: a153 1a3d c67a 07bd dc89 15bd b51e 66bd
00000260: eb84 b8bd 2a67 f93e 01e2 7dbd 9930 d3bc
00000270: bbf4 f03d 0605 853e b2cb f2ba 2de0 723d
00000280: f2ef 9c3c fe67 e33d 8501 1ebd d285 c03d
00000290: 5108 f83c 360a e3bc d5b3 303e 2864 9e3c
000002a0: ee9b e83d e86f 853d acd6 5a3c 3270 42be
000002b0: 090d 623c 321a 2d3d 26c4 83be 4ae5 3fbd
000002c0: 0a98 a5bc 1f5e 2b3e 64f9 b93d 761c b0bd
000002d0: 2b92 48bd 251a 723b d994 87bd a83c c43d
000002e0: f131 85bc 136a da3d 355d 4bb8 2fb2 ee3d
000002f0: bd14 593e bc38 c63a d84c 933d 92da d13d
00000300: c0c0 283d 6cae 18be 99ee 913c 19db 583d
00000310: 3332 083e bdf5 a5bd 7102 b6be 3a97 c6bd
00000320: 41dc 2dbf 1183 bb3e 7122 3ebd f597 473e
00000330: a1eb 61bc e4d3 99bd d138 1b3d e736 e43b
00000340: 1dbc b93d 01e4 f63c ebc1 a5bd 934d a03d
00000350: 46aa e4bd 6fdc f53d ead4 1b3e 128a d2bc
00000360: 5f63 f53d ed40 14be 6c3d c2bd f2ae 81bc
00000370: a4bd 26bd e27a 69be a98e ad3d 1915 073d
00000380: 2497 51be 2742 2cbe 59bd 103d bdb5 1ebe
00000390: 04d5 48bc dd5d 94bd 55b5 9bbd ff2a a2be
000003a0: 7a0f 0bbd 31f7 50be 6580 b2bc 8377 1d3d
000003b0: b5c0 8f3c 6820 a63b f916 893d dc21 b03e
000003c0: a601 f8bd f0f7 c3bd 44cf 54be 196c 533d
000003d0: 574a 2e3c 0d43 923d 7707 083d 9833 c1bd
000003e0: 86db 743d ecbe 4c3d 1645 883d a071 6e3c
000003f0: 8656 d3bd ab03 ca3c 8276 0b3d e38c ffbb

conv4.bias f4 [64]
-0.06066901 0.035308294 -0.06642242 0.074517526 -0.00822493 -0.113359824 0.005478615 -0.049078446
0.10432535 0.023054482 0.010974885 -0.032194495 0.070955485 -0.023919623 0.040830426 0.06920702
0.10030757 -0.03928851 0.024437891 0.112472095 0.04630868 0.009832161 0.07447994 0.18003628
0.06389324 0.10293507 0.009298259 0.0753933 -0.013839656 0.06879523 0.0021155456 -0.071707025
0.028198015 0.0032332237 0.146291 0.0027022779 0.079061545 -0.10737969 0.011870551 0.14631455
-0.05048912 0.090019345 -0.03463319 0.008144122 0.092014134 -0.033717994 0.025245117 0.025225041
0.096911475 -0.09504832 -0.059690613 0.004675468 -0.058860756 -0.00929311 -0.076857544 0.0010400355
-0.039342094 0.08461965 -0.0029958542 0.02149156 0.04963895 -0.0864191 0.06324813 0.041738354
00000000: 1180 78bd 6e9f 103d 7a08 88bd a59c 983d
00000010: dbc1 06bc 3229 e8bd f485 b33b 7b06 49bd
00000020: 87a8 d53d c1dc bc3c 01d0 333c 60de 03bd
00000030: 1c51 913d 16f3 c3bc ce3d 273d 69bc 8d3d
00000040: 0e6e cd3d fdec 20bd f931 c83c c557 e63d
00000050: 2cae 3d3d 1217 213c f088 983d 6e5b 383e
00000060: 76da 823d 9fcf d23d ba57 183c cd67 9a3d
00000070: b9bf 62bc 83e4 8c3d f7a4 0a3b 22db 92bd
00000080: 86ff e63c 7ee4 533b 4fcd 153e b318 313b
00000090: 05eb a13d e2e9 dbbd b37c 423c 7bd3 153e
000000a0: aecd 4ebd 105c b83d 88db 0dbd ec6e 053c
000000b0: e871 bc3d e11b 0abd d9ce ce3c bfa4 ce3c
000000c0: 8679 c63d b2a8 c2bd 257e 74bd ab34 993b
000000d0: fa17 71bd 2142 18bc 7d67 9dbd cd51 883a
000000e0: 2d25 21bd 114d ad3d 1856 44bb 110f b03c
000000f0: 3652 4b3d 7ffc b0bd 3c88 813d d6f5 2a3d

bn4.weight f4 [64]
2.3254895 2.3292406 2.1181412 2.051698 2.048793 1.9683433 2.115577 2.1228025
2.149021 1.997529 1.8748773 2.054301 2.0064313 2.0211215 2.0388772 2.4569361
2.2269423 2.228347 2.1746294 2.1589112 2.0870516 2.177468 2.3368545 2.2275147
2.1575587 2.2423875 2.223074 1.8530209 2.4419863 2.1103973 2.1814282 2.0114655
2.0471094 2.2252693 2.0257542 2.184596 2.207208 2.0822828 2.1058888 2.3775606
2.3832743 2.1793673 2.1163187 2.3047302 2.0738056 2.1973102 2.0670009 2.383821
2.2341871 1.7305714 1.9478406 1.9781832 2.1308768 1.9981135 2.4269152 2.3744524
2.374581 2.104486 2.0870702 2.0995696 2.0494995 2.0178602 1.9853455 2.1453855
00000000: d2d4 1440 4712 1540 a08f 0740 054f 0340
00000010: 6d1f 0340 acf2 fb3f 9d65 0740 ffdb 0740
00000020: 8f89 0940 08af ff3f fbfb ef3f ab79 0340
00000030: 5f69 0040 0e5a 0140 f77c 0240 713e 1d40
00000040: 3986 0e40 3d9d 0e40 212d 0b40 9a2b 0a40
00000050: 4192 0540 a35b 0b40 068f 1540 9a8f 0e40
00000060: 7115 0a40 4783 0f40 d846 0e40 ca2f ed3f
00000070: 8149 1c40 c010 0740 859c 0b40 dabb 0040
00000080: d703 0340 d06a 0e40 f5a5 0140 6cd0 0b40
00000090: e542 0d40 1f44 0540 e2c6 0640 f429 1840
000000a0: 9187 1840 c17a 0b40 c471 0740 b380 1340
000000b0: 3bb9 0440 bba0 0c40 be49 0440 8690 1840
000000c0: ecfc 0e40 5d83 dd3f d752 f93f 1b35 fd3f
000000d0: 4960 0840 2fc2 ff3f 9452 1b40 07f7 1740
000000e0: 23f9 1740 e6af 0640 8f92 0540 595f 0640
000000f0: 002b 0340 9f24 0140 cd1f fe3f ff4d 0940

bn4.bias f4 [64]
0.20081219 0.12592849 -0.4617072 -0.19357981 -0.12159115 0.20941257 0.005398783 -0.23354213
-0.2554865 -0.06860528 0.07354927 -0.10154635 0.121063806 0.07632551 -0.29154626 -0.6337735
0.3513607 0.42171904 0.50128394 -0.34473643 0.37544522 -0.043684725 -0.105028816 0.055482343
0.024927018 0.10337694 -0.4521718 0.06571368 -0.3200315 -0.46112597 -0.13767458 0.07730256
0.21764112 -0.0022412357 0.25109202 0.29531896 0.4789125 0.06390741 0.5189383 0.15219267
-0.016867926 0.0065586325 0.071146436 0.5535404 0.5895357 0.10251053 -0.16016077 -0.267767
0.29321897 0.32562265 0.24542353 0.07422019 0.088032395 -0.39619908 -0.06945015 0.3442615
-0.10865723 0.030860882 -0.15469886 0.31645605 0.5928712 0.015232669 -0.070460774 0.0013103263
00000000: b6a1 4d3e 66f3 003e e364 ecbe c939 46be
00000010: c804 f9bd 4070 563e 46e8 b03b ab25 6fbe
00000020: 20cf 82be ed80 8cbd 00a1 963d 88f7 cfbd
00000030: 4df0 f73d 8d50 9c3d 8d45 95be fb3e 22bf
00000040: 8de5 b33e 8feb d73e 2554 003f 4b81 b0be
00000050: 5b3a c03e c1ee 32bd 5919 d7bd 7441 633d
00000060: bf33 cc3c 4ab7 d33d 1083 e7be e594 863d
00000070: 2bdb a3be b418 ecbe 91fa 0cbe ce50 9e3d
00000080: 50dd 5e3e b2e1 12bb 228f 803e 0c34 973e
00000090: 0534 f53e e3e1 823d 24d9 043f 65d8 1b3e
000000a0: 9b2e 8abc cce9 d63b 39b5 913d d3b4 0d3f
000000b0: d0eb 163f 0af1 d13d 2f01 24be c218 89be
000000c0: cc20 963e 03b8 a63e 4e50 7b3e c100 983d
000000d0: 544a b43d 9bda cabe e13b 8ebd 0b43 b03e
000000e0: af87 debd f6cf fc3c 6169 1ebe 8706 a23e
000000f0: 68c6 173f 7292 793c bd4d 90bd 41bf ab3a

bn4.running_mean f4 [64]
0.394835 0.8387905 -0.06519777 0.49590674 0.19886969 -0.21164389 0.62588626 0.5120269
-0.43483007 0.744416 1.0868852 0.07635576 1.0444429 0.038342305 0.4106536 0.48813102
0.7923802 0.8621205 0.7929493 0.74426335 0.15648164 0.39704308 0.51700956 0.8276141
0.2527504 0.7261383 0.3146322 0.32145354 0.57936877 0.6947122 0.5210937 0.20526129
0.4006594 0.24733886 0.9022759 0.592185 0.92496693 -0.12735468 0.5112755 1.236853
0.15865846 0.6074663 0.11664695 0.6668313 1.20085 0.09112234 -0.26611713 -0.19505993
1.0521884 0.2612738 -0.06970825 -0.32922593 -0.45984167 0.42529574 0.019335002 0.004494153
-0.48039252 0.88668627 0.1048585 0.54241 0.5130095 0.8327309 0.39175725 0.9035224
00000000: d027 ca3e f9ba 563f 6986 85bd 7de7 fd3e
00000010: 7fa4 4b3e 2db9 58be 153a 203f 3214 033f
00000020: 0ca2 debe 0c92 3e3f 0e1f 8b3f 6960 9c3d
00000030: 4eb0 853f d20c 1d3d 3041 d23e 4fec f93e
00000040: 6ed9 4a3f eeb3 5c3f bafe 4a3f 0b88 3e3f
00000050: b93c 203e 3b49 cb3e bd5a 043f 85de 533f
00000060: 8068 813e 33e4 393f 7917 a13e 8f95 a43e
00000070: 8351 143f a9d8 313f 6666 053f 0430 523e
00000080: 3b23 cd3e 6646 7d3e 8efb 663f 7099 173f
00000090: a2ca 6c3f 4469 02be f3e2 023f 3351 9e3f
000000a0: 5d77 223e e982 1b3f 99e4 ee3d 75b5 2a3f
000000b0: 74b5 993f 599e ba3d 8140 88be cabd 47be
000000c0: 1cae 863f aec5 853e 33c3 8ebd 4d90 a8be
000000d0: 5e70 ebbe 5dc0 d93e 7064 9e3c b043 933b
000000e0: 02f6 f5be dffd 623f 0ec0 d63d 62db 0a3f
000000f0: 9754 033f da2d 553f 6894 c83e 3e4d 673f

bn4.running_var f4 [64]
0.5444784 0.48648104 0.45255896 0.41639456 0.40902698 0.3122062 0.3855369 0.27806836
0.47493774 0.367055 0.49482787 0.50057834 0.30979216 0.36782223 0.4008853 0.60288316
0.29475644 0.35743967 0.39169544 0.404943 0.44304425 0.37751415 0.4999122 0.35558152
0.33608142 0.6246629 0.48271596 0.27261993 0.45165834 0.50944704 0.39830303 0.36145204
0.4190872 0.33246633 0.26371816 0.4738298 0.46499243 0.5669133 0.628988 0.60735536
0.64269894 0.32844865 0.9013901 0.43474388 0.5562033 0.6079608 0.6436631 0.7780399
0.6593083 0.28056437 0.28723958 0.35953066 0.52083987 0.32530633 0.6332541 0.43308574
0.47567144 0.61630195 0.3289325 0.3626141 0.36174586 0.44612265 0.3162872 0.34102023
00000000: f062 0b3f 0b14 f93e cfb5 e73e ab31 d53e
00000010: fc6b d13e 7ed9 9f3e 1865 c53e fa5e 8e3e
00000020: 0a2b f33e a2ee bb3e 145a fd3e e725 003f
00000030: 149d 9e3e 3253 bc3e d740 cd3e 8d56 1a3f
00000040: 51ea 963e 5502 b73e 4e8c c83e b054 cf3e
00000050: b2d6 e23e 8949 c13e 7ef4 ff3e c80e b63e
00000060: dd12 ac3e e8e9 1f3f 8c26 f73e d794 8b3e
00000070: c33f e73e 1f6b 023f 60ee cb3e 3e10 b93e
00000080: 9992 d63e 0739 aa3e 1106 873e d299 f23e
00000090: 7d13 ee3e 3b21 113f 5c05 213f a47b 1b3f
000000a0: eb87 243f 6c2a a83e 80c1 663f c096 de3e
000000b0: 5763 0e3f 52a3 1b3f 1bc7 243f 9f2d 473f
000000c0: 6ec8 283f 22a6 8f3e 1111 933e 6714 b83e
000000d0: c355 053f 8d8e a63e f11c 223f 6abd dd3e
000000e0: 358b f33e f7c5 1d3f d769 a83e 8ea8 b93e
000000f0: c136 b93e 306a e43e 65f0 a13e 349a ae3e
